…
	'SaverPlugin': {'keep_old_checkpoints': False, 'network_snapshot_ticks': 40},
	'OutputGenerator': {'samples_count': 6, 'output_snapshot_ticks': 3},
	'Adam': {'betas': (0.0, 0.99), 'eps': 1e-08, 'weight_decay': 0, 'amsgrad': False},
	'ImageSaver': {'samples_path': '.', 'drange': (-1, 1), 'resolution': 512, 'create_subdirs': True},
	'Postprocessor': {'samples_path': '.'},
	'SoundSaver': {'samples_path': '.', 'drange': (-1, 1), 'resolution': 512, 'mode': 'abslog', 'sample_rate': 16000, 'hop_length': 128, 'create_subdirs': True, 'verbose': False, 'griffin_lim_iter': 100},
}
model max_depth:  6
Discriminator max_depth:  6
Generator(
  (fc): Conv2d(29, 512, kernel_size=(3, 3), stride=(1, 1), padding=(1, 1))
  (block0): SPADEResnetBlock(
    (conv_0): Conv2d(512, 512, kernel_size=(3, 3), stride=(1, 1), padding=(1, 1))
    (conv_1): Conv2d(512, 512, kernel_size=(3, 3), stride=(1, 1), padding=(1, 1))
    (norm_0): SPADE(
      (param_free_norm): SynchronizedBatchNorm2d(512, eps=1e-05, momentum=0.1, affine=False, track_running_stats=True)
      (mlp_shared): Sequential(
        (0): Conv2d(29, 128, kernel_size=(3, 3), stride=(1, 1), padding=(1, 1))
        (1): ReLU()
      )
      (mlp_gamma): Conv2d(128, 512, kernel_size=(3, 3), stride=(1, 1), padding=(1, 1))
      (mlp_beta): Conv2d(128, 512, kernel_size=(3, 3), stride=(1, 1), padding=(1, 1))
    )
    (norm_1): SPADE(
      (param_free_norm): SynchronizedBatchNorm2d(512, eps=1e-05, momentum=0.1, affine=False, track_running_stats=True)
      (mlp_shared): Sequential(
        (0): Conv2d(29, 128, kernel_size=(3, 3), stride=(1, 1), padding=(1, 1))
        (1): ReLU()
      )
      (mlp_gamma): Conv2d(128, 512, kernel_size=(3, 3), stride=(1, 1), padding=(1, 1))
      (mlp_beta): Conv2d(128, 512, kernel_size=(3, 3), stride=(1, 1), padding=(1, 1))
    )
    (toRGB): Conv2d(512, 3, kernel_size=(3, 3), stride=(1, 1), padding=(1, 1))
  )
  (blocks): ModuleList(
    (0): SPADEResnetBlock(
      (conv_0): Conv2d(512, 512, kernel_size=(3, 3), stride=(1, 1), padding=(1, 1))
      (conv_1): Conv2d(512, 512, kernel_size=(3, 3), stride=(1, 1), padding=(1, 1))
      (norm_0): SPADE(
        (param_free_norm): SynchronizedBatchNorm2d(512, eps=1e-05, momentum=0.1, affine=False, track_running_stats=True)
        (mlp_shared): Sequential(
          (0): Conv2d(29, 128, kernel_size=(3, 3), stride=(1, 1), padding=(1, 1))
          (1): ReLU()
        )
        (mlp_gamma): Conv2d(128, 512, kernel_size=(3, 3), stride=(1, 1), padding=(1, 1))
        (mlp_beta): Conv2d(128, 512, kernel_size=(3, 3), stride=(1, 1), padding=(1, 1))
      )
      (norm_1): SPADE(
        (param_free_norm): SynchronizedBatchNorm2d(512, eps=1e-05, momentum=0.1, affine=False, track_running_stats=True)
        (mlp_shared): Sequential(
          (0): Conv2d(29, 128, kernel_size=(3, 3), stride=(1, 1), padding=(1, 1))
          (1): ReLU()
        )
        (mlp_gamma): Conv2d(128, 512, kernel_size=(3, 3), stride=(1, 1), padding=(1, 1))
        (mlp_beta): Conv2d(128, 512, kernel_size=(3, 3), stride=(1, 1), padding=(1, 1))
      )
      (toRGB): Conv2d(512, 3, kernel_size=(3, 3), stride=(1, 1), padding=(1, 1))
    )
    (1): SPADEResnetBlock(
      (conv_0): Conv2d(512, 256, kernel_size=(3, 3), stride=(1, 1), padding=(1, 1))
      (conv_1): Conv2d(256, 256, kernel_size=(3, 3), stride=(1, 1), padding=(1, 1))
      (conv_s): Conv2d(512, 256, kernel_size=(1, 1), stride=(1, 1), bias=False)
      (norm_0): SPADE(
        (param_free_norm): SynchronizedBatchNorm2d(512, eps=1e-05, momentum=0.1, affine=False, track_running_stats=True)
        (mlp_shared): Sequential(
          (0): Conv2d(29, 128, kernel_size=(3, 3), stride=(1, 1), padding=(1, 1))
          (1): ReLU()
        )
        (mlp_gamma): Conv2d(128, 512, kernel_size=(3, 3), stride=(1, 1), padding=(1, 1))
        (mlp_beta): Conv2d(128, 512, kernel_size=(3, 3), stride=(1, 1), padding=(1, 1))
      )
      (norm_1): SPADE(
        (param_free_norm): SynchronizedBatchNorm2d(256, eps=1e-05, momentum=0.1, affine=False, track_running_stats=True)
        (mlp_shared): Sequential(
          (0): Conv2d(29, 128, kernel_size=(3, 3), stride=(1, 1), padding=(1, 1))
          (1): ReLU()
        )
        (mlp_gamma): Conv2d(128, 256, kernel_size=(3, 3), stride=(1, 1), padding=(1, 1))
        (mlp_beta): Conv2d(128, 256, kernel_size=(3, 3), stride=(1, 1), padding=(1, 1))
      )
      (norm_s): SPADE(
        (param_free_norm): SynchronizedBatchNorm2d(512, eps=1e-05, momentum=0.1, affine=False, track_running_stats=True)
        (mlp_shared): Sequential(
          (0): Conv2d(29, 128, kernel_size=(3, 3), stride=(1, 1), padding=(1, 1))
          (1): ReLU()
        )
        (mlp_gamma): Conv2d(128, 512, kernel_size=(3, 3), stride=(1, 1), padding=(1, 1))
        (mlp_beta): Conv2d(128, 512, kernel_size=(3, 3), stride=(1, 1), padding=(1, 1))
      )
      (toRGB): Conv2d(256, 3, kernel_size=(3, 3), stride=(1, 1), padding=(1, 1))
    )
    (2): SPADEResnetBlock(
      (conv_0): Conv2d(256, 128, kernel_size=(3, 3), stride=(1, 1), padding=(1, 1))
      (conv_1): Conv2d(128, 128, kernel_size=(3, 3), stride=(1, 1), padding=(1, 1))
      (conv_s): Conv2d(256, 128, kernel_size=(1, 1), stride=(1, 1), bias=False)
      (norm_0): SPADE(
        (param_free_norm): SynchronizedBatchNorm2d(256, eps=1e-05, momentum=0.1, affine=False, track_running_stats=True)
        (mlp_shared): Sequential(
          (0): Conv2d(29, 128, kernel_size=(3, 3), stride=(1, 1), padding=(1, 1))
          (1): ReLU()
        )
        (mlp_gamma): Conv2d(128, 256, kernel_size=(3, 3), stride=(1, 1), padding=(1, 1))
        (mlp_beta): Conv2d(128, 256, kernel_size=(3, 3), stride=(1, 1), padding=(1, 1))
      )
      (norm_1): SPADE(
        (param_free_norm): SynchronizedBatchNorm2d(128, eps=1e-05, momentum=0.1, affine=False, track_running_stats=True)
        (mlp_shared): Sequential(
          (0): Conv2d(29, 128, kernel_size=(3, 3), stride=(1, 1), padding=(1, 1))
          (1): ReLU()
        )
        (mlp_gamma): Conv2d(128, 128, kernel_size=(3, 3), stride=(1, 1), padding=(1, 1))
        (mlp_beta): Conv2d(128, 128, kernel_size=(3, 3), stride=(1, 1), padding=(1, 1))
      )
      (norm_s): SPADE(
        (param_free_norm): SynchronizedBatchNorm2d(256, eps=1e-05, momentum=0.1, affine=False, track_running_stats=True)
        (mlp_shared): Sequential(
          (0): Conv2d(29, 128, kernel_size=(3, 3), stride=(1, 1), padding=(1, 1))
          (1): ReLU()
        )
        (mlp_gamma): Conv2d(128, 256, kernel_size=(3, 3), stride=(1, 1), padding=(1, 1))
        (mlp_beta): Conv2d(128, 256, kernel_size=(3, 3), stride=(1, 1), padding=(1, 1))
      )
      (toRGB): Conv2d(128, 3, kernel_size=(3, 3), stride=(1, 1), padding=(1, 1))
    )
    (3): SPADEResnetBlock(
      (conv_0): Conv2d(128, 64, kernel_size=(3, 3), stride=(1, 1), padding=(1, 1))
      (conv_1): Conv2d(64, 64, kernel_size=(3, 3), stride=(1, 1), padding=(1, 1))
      (conv_s): Conv2d(128, 64, kernel_size=(1, 1), stride=(1, 1), bias=False)
      (norm_0): SPADE(
        (param_free_norm): SynchronizedBatchNorm2d(128, eps=1e-05, momentum=0.1, affine=False, track_running_stats=True)
        (mlp_shared): Sequential(
          (0): Conv2d(29, 128, kernel_size=(3, 3), stride=(1, 1), padding=(1, 1))
          (1): ReLU()
        )
        (mlp_gamma): Conv2d(128, 128, kernel_size=(3, 3), stride=(1, 1), padding=(1, 1))
        (mlp_beta): Conv2d(128, 128, kernel_size=(3, 3), stride=(1, 1), padding=(1, 1))
      )
      (norm_1): SPADE(
        (param_free_norm): SynchronizedBatchNorm2d(64, eps=1e-05, momentum=0.1, affine=False, track_running_stats=True)
        (mlp_shared): Sequential(
          (0): Conv2d(29, 128, kernel_size=(3, 3), stride=(1, 1), padding=(1, 1))
          (1): ReLU()
        )
        (mlp_gamma): Conv2d(128, 64, kernel_size=(3, 3), stride=(1, 1), padding=(1, 1))
        (mlp_beta): Conv2d(128, 64, kernel_size=(3, 3), stride=(1, 1), padding=(1, 1))
      )
      (norm_s): SPADE(
        (param_free_norm): SynchronizedBatchNorm2d(128, eps=1e-05, momentum=0.1, affine=False, track_running_stats=True)
        (mlp_shared): Sequential(
          (0): Conv2d(29, 128, kernel_size=(3, 3), stride=(1, 1), padding=(1, 1))
          (1): ReLU()
        )
        (mlp_gamma): Conv2d(128, 128, kernel_size=(3, 3), stride=(1, 1), padding=(1, 1))
        (mlp_beta): Conv2d(128, 128, kernel_size=(3, 3), stride=(1, 1), padding=(1, 1))
      )
      (toRGB): Conv2d(64, 3, kernel_size=(3, 3), stride=(1, 1), padding=(1, 1))
    )
    (4): SPADEResnetBlock(
      (conv_0): Conv2d(64, 32, kernel_size=(3, 3), stride=(1, 1), padding=(1, 1))
      (conv_1): Conv2d(32, 32, kernel_size=(3, 3), stride=(1, 1), padding=(1, 1))
      (conv_s): Conv2d(64, 32, kernel_size=(1, 1), stride=(1, 1), bias=False)
      (norm_0): SPADE(
        (param_free_norm): SynchronizedBatchNorm2d(64, eps=1e-05, momentum=0.1, affine=False, track_running_stats=True)
        (mlp_shared): Sequential(
          (0): Conv2d(29, 128, kernel_size=(3, 3), stride=(1, 1), padding=(1, 1))
          (1): ReLU()
        )
        (mlp_gamma): Conv2d(128, 64, kernel_size=(3, 3), stride=(1, 1), padding=(1, 1))
        (mlp_beta): Conv2d(128, 64, kernel_size=(3, 3), stride=(1, 1), padding=(1, 1))
      )
      (norm_1): SPADE(
        (param_free_norm): SynchronizedBatchNorm2d(32, eps=1e-05, momentum=0.1, affine=False, track_running_stats=True)
        (mlp_shared): Sequential(
          (0): Conv2d(29, 128, kernel_size=(3, 3), stride=(1, 1), padding=(1, 1))
          (1): ReLU()
        )
        (mlp_gamma): Conv2d(128, 32, kernel_size=(3, 3), stride=(1, 1), padding=(1, 1))
        (mlp_beta): Conv2d(128, 32, kernel_size=(3, 3), stride=(1, 1), padding=(1, 1))
      )
      (norm_s): SPADE(
        (param_free_norm): SynchronizedBatchNorm2d(64, eps=1e-05, momentum=0.1, affine=False, track_running_stats=True)
        (mlp_shared): Sequential(
          (0): Conv2d(29, 128, kernel_size=(3, 3), stride=(1, 1), padding=(1, 1))
          (1): ReLU()
        )
        (mlp_gamma): Conv2d(128, 64, kernel_size=(3, 3), stride=(1, 1), padding=(1, 1))
        (mlp_beta): Conv2d(128, 64, kernel_size=(3, 3), stride=(1, 1), padding=(1, 1))
      )
      (toRGB): Conv2d(32, 3, kernel_size=(3, 3), stride=(1, 1), padding=(1, 1))
    )
    (5): SPADEResnetBlock(
      (conv_0): Conv2d(32, 16, kernel_size=(3, 3), stride=(1, 1), padding=(1, 1))
      (conv_1): Conv2d(16, 16, kernel_size=(3, 3), stride=(1, 1), padding=(1, 1))
      (conv_s): Conv2d(32, 16, kernel_size=(1, 1), stride=(1, 1), bias=False)
      (norm_0): SPADE(
        (param_free_norm): SynchronizedBatchNorm2d(32, eps=1e-05, momentum=0.1, affine=False, track_running_stats=True)
        (mlp_shared): Sequential(
          (0): Conv2d(29, 128, kernel_size=(3, 3), stride=(1, 1), padding=(1, 1))
          (1): ReLU()
        )
        (mlp_gamma): Conv2d(128, 32, kernel_size=(3, 3), stride=(1, 1), padding=(1, 1))
        (mlp_beta): Conv2d(128, 32, kernel_size=(3, 3), stride=(1, 1), padding=(1, 1))
      )
      (norm_1): SPADE(
        (param_free_norm): SynchronizedBatchNorm2d(16, eps=1e-05, momentum=0.1, affine=False, track_running_stats=True)
        (mlp_shared): Sequential(
          (0): Conv2d(29, 128, kernel_size=(3, 3), stride=(1, 1), padding=(1, 1))
          (1): ReLU()
        )
        (mlp_gamma): Conv2d(128, 16, kernel_size=(3, 3), stride=(1, 1), padding=(1, 1))
        (mlp_beta): Conv2d(128, 16, kernel_size=(3, 3), stride=(1, 1), padding=(1, 1))
      )
      (norm_s): SPADE(
        (param_free_norm): SynchronizedBatchNorm2d(32, eps=1e-05, momentum=0.1, affine=False, track_running_stats=True)
        (mlp_shared): Sequential(
          (0): Conv2d(29, 128, kernel_size=(3, 3), stride=(1, 1), padding=(1, 1))
          (1): ReLU()
        )
        (mlp_gamma): Conv2d(128, 32, kernel_size=(3, 3), stride=(1, 1), padding=(1, 1))
        (mlp_beta): Conv2d(128, 32, kernel_size=(3, 3), stride=(1, 1), padding=(1, 1))
      )
      (toRGB): Conv2d(16, 3, kernel_size=(3, 3), stride=(1, 1), padding=(1, 1))
    )
  )
)
Total nuber of parameters in Generator: 23225765
Discriminator(
  (blocks): ModuleList(
    (0): DBlock(
      (fromRGB): PGConv2d(
        (conv): Conv2d(3, 16, kernel_size=(1, 1), stride=(1, 1))
        (act): LeakyReLU(negative_slope=0.2)
      )
      (c1): PGConv2d(
        (conv): Conv2d(16, 16, kernel_size=(3, 3), stride=(1, 1), padding=(1, 1))
        (act): LeakyReLU(negative_slope=0.2)
      )
      (c2): PGConv2d(
        (conv): Conv2d(16, 32, kernel_size=(3, 3), stride=(1, 1), padding=(1, 1))
        (act): LeakyReLU(negative_slope=0.2)
      )
    )
    (1): DBlock(
      (fromRGB): PGConv2d(
        (conv): Conv2d(3, 32, kernel_size=(1, 1), stride=(1, 1))
        (act): LeakyReLU(negative_slope=0.2)
      )
      (c1): PGConv2d(
        (conv): Conv2d(32, 32, kernel_size=(3, 3), stride=(1, 1), padding=(1, 1))
        (act): LeakyReLU(negative_slope=0.2)
      )
      (c2): PGConv2d(
        (conv): Conv2d(32, 64, kernel_size=(3, 3), stride=(1, 1), padding=(1, 1))
        (act): LeakyReLU(negative_slope=0.2)
      )
    )
    (2): DBlock(
      (fromRGB): PGConv2d(
        (conv): Conv2d(3, 64, kernel_size=(1, 1), stride=(1, 1))
        (act): LeakyReLU(negative_slope=0.2)
      )
      (c1): PGConv2d(
        (conv): Conv2d(64, 64, kernel_size=(3, 3), stride=(1, 1), padding=(1, 1))
        (act): LeakyReLU(negative_slope=0.2)
      )
      (c2): PGConv2d(
        (conv): Conv2d(64, 128, kernel_size=(3, 3), stride=(1, 1), padding=(1, 1))
        (act): LeakyReLU(negative_slope=0.2)
      )
    )
    (3): DBlock(
      (fromRGB): PGConv2d(
        (conv): Conv2d(3, 128, kernel_size=(1, 1), stride=(1, 1))
        (act): LeakyReLU(negative_slope=0.2)
      )
      (c1): PGConv2d(
        (conv): Conv2d(128, 128, kernel_size=(3, 3), stride=(1, 1), padding=(1, 1))
        (act): LeakyReLU(negative_slope=0.2)
      )
      (c2): PGConv2d(
        (conv): Conv2d(128, 256, kernel_size=(3, 3), stride=(1, 1), padding=(1, 1))
        (act): LeakyReLU(negative_slope=0.2)
      )
    )
    (4): DBlock(
      (fromRGB): PGConv2d(
        (conv): Conv2d(3, 256, kernel_size=(1, 1), stride=(1, 1))
        (act): LeakyReLU(negative_slope=0.2)
      )
      (c1): PGConv2d(
        (conv): Conv2d(256, 256, kernel_size=(3, 3), stride=(1, 1), padding=(1, 1))
        (act): LeakyReLU(negative_slope=0.2)
      )
      (c2): PGConv2d(
        (conv): Conv2d(256, 512, kernel_size=(3, 3), stride=(1, 1), padding=(1, 1))
        (act): LeakyReLU(negative_slope=0.2)
      )
    )
    (5): DBlock(
      (fromRGB): PGConv2d(
        (conv): Conv2d(3, 512, kernel_size=(1, 1), stride=(1, 1))
        (act): LeakyReLU(negative_slope=0.2)
      )
      (c1): PGConv2d(
        (conv): Conv2d(512, 512, kernel_size=(3, 3), stride=(1, 1), padding=(1, 1))
        (act): LeakyReLU(negative_slope=0.2)
      )
      (c2): PGConv2d(
        (conv): Conv2d(512, 512, kernel_size=(3, 3), stride=(1, 1), padding=(1, 1))
        (act): LeakyReLU(negative_slope=0.2)
      )
    )
    (6): DLastBlock(
      (fromRGB): PGConv2d(
        (conv): Conv2d(3, 512, kernel_size=(1, 1), stride=(1, 1))
        (act): LeakyReLU(negative_slope=0.2)
      )
      (stddev): MinibatchStddev()
      (c1): PGConv2d(
        (conv): Conv2d(512, 512, kernel_size=(3, 3), stride=(1, 1), padding=(1, 1))
        (act): LeakyReLU(negative_slope=0.2)
      )
      (c2): PGConv2d(
        (conv): Conv2d(512, 512, kernel_size=(3, 3), stride=(1, 1), padding=(1, 1))
        (act): LeakyReLU(negative_slope=0.2)
      )
      (c3): PGConv2d(
        (conv): Conv2d(513, 512, kernel_size=(3, 3), stride=(1, 1), padding=(1, 1))
        (act): LeakyReLU(negative_slope=0.2)
      )
      (c4): PGConv2d(
        (conv): Conv2d(512, 512, kernel_size=(3, 4), stride=(1, 1))
        (act): LeakyReLU(negative_slope=0.2)
      )
    )
  )
  (linear): Linear(in_features=512, out_features=1, bias=True)
)
Total nuber of parameters in Discriminator: 17314961
dataset [Pix2pixDataset] of size 10000 was created
create web directory results/TEST/web...
DepthManager max_depth:  6
switch depth:  0
dataset [Pix2pixDataset] of size 10000 was created
Comet_ml logging disabled.
real_image.shape:  torch.Size([128, 3, 6, 8])
need_visual False
====D=====information=====
…
